simple_model.pth (torch, 205631 bytes, 6 tensors)

weight f4 [32, 1, 3, 3]
000000 0c 23 d4 be 15 0e ee bd c6 a5 52 bd 50 31 cf bd
       -0.4143299 -0.1162378 -0.051427625 -0.101168275
000010 da 6b 8c 3e cb 2e bf 3e 26 ef d6 3d 55 a4 d6 3b
       0.27426034 0.37340388 0.10494833 0.0065503516
000020 df 57 03 3e 90 30 e5 be cb 48 eb be 8a 85 70 3d
       0.12826489 -0.44763613 -0.45953974 0.058721103
000030 b7 b1 f8 be 3b db 58 3e f5 e1 86 3e 79 1c 03 3f
       -0.48573086 0.2117738 0.26344267 0.5121532
000040 13 5b fd 3e 53 6b 20 be 53 64 96 3e 5a b4 8e 3e
       0.49483547 -0.15665941 0.29373416 0.27871972
000050 bb 1d 13 3e 4e e1 83 be 10 4d 04 bd 64 ab 2f be
       0.1436681 -0.2575783 -0.032300055 -0.17155224
000060 b1 d7 3b 3e 4d 1e 88 3e 0e aa 78 3e 1f 09 85 be
       0.18343998 0.26585618 0.2428362 -0.2598352
000070 b7 1f 3b bf e8 86 f1 be eb 82 12 bc be 50 0a 3e
       -0.7309527 -0.47173238 -0.008942346 0.13507363
000080 f8 a1 5c 3d 6f 01 0f 3f 40 b2 fd 3d e7 65 e0 3e
       0.053865403 0.5586156 0.12387514 0.43827745
000090 63 f8 c0 3e 20 a9 15 3e ec 93 22 be e5 e5 67 3e
       0.37689504 0.14615297 -0.1587674 0.22646292
0000a0 80 1f c9 bd a0 d8 75 be 67 c9 c1 3e fe 28 df 3e
       -0.09820461 -0.24008417 0.3784897 0.43585962
0000b0 02 85 c5 be ad b3 42 bf 87 f5 65 be f3 5a 7e bd
       -0.3857804 -0.76055413 -0.22456942 -0.062098455
0000c0 27 27 f1 be 90 73 61 bd 80 2b 07 3f 44 38 63 be
       -0.47100183 -0.05504185 0.5280075 -0.22189432
0000d0 3d 10 fd 3d f4 16 08 3f 3a 30 db 3b 4f dd 42 3e
       0.12356613 0.53160024 0.0066890987 0.19029735
0000e0 89 b5 7a be 50 88 40 3e 9f 50 f2 3e 75 4e cf 3d
       -0.24483313 0.18801999 0.47327134 0.10122386
0000f0 9d a7 f8 3d d7 65 9b be f3 4b b1 be 76 48 57 be
       0.12141345 -0.30351135 -0.34628257 -0.21023735
000100 ba 18 8f 3e 61 d4 05 3f 55 15 0c bb 43 75 cf be
       0.27948552 0.5227719 -0.002137502 -0.4051915
000110 74 5e fa bd 65 7a e1 bd 84 c9 90 be 64 a3 df be
       -0.12225047 -0.11009673 -0.28278744 -0.43679345
000120 a1 d1 a1 3d ec 20 34 bf d7 47 1d bf 86 f0 74 3f
       0.07901312 -0.70362735 -0.61437744 0.9567951
000130 01 2f 2a be 2e ca ea be bb 93 00 3f b2 00 58 3e
       -0.16619493 -0.45857376 0.5022542 0.21094015
000140 27 49 12 3e 87 21 9e be c6 8e 40 3e c8 f6 84 3e
       0.14285718 -0.30884954 0.18804464 0.2596953
000150 55 d1 8a 3e cb 60 71 be 21 a3 83 3d f8 9a b5 3e
       0.27112833 -0.2357208 0.06427599 0.35469794
000160 e2 88 9d 3e d6 b0 77 3e f5 3d 09 bf de db e2 be
       0.30768496 0.24188551 -0.53610164 -0.4430837
000170 7c 67 53 3e e5 61 c5 3e 8b 3e e5 3e b6 9d 89 3e
       0.20644945 0.3855125 0.4477428 0.26878136
000180 c3 c2 6e 3e 12 ab 67 3e 91 ad a4 3b 3d 7f c3 3e
       0.23316483 0.22623852 0.0050255735 0.38183013
000190 d1 74 c6 3d d7 00 dd be e1 9d 24 3e 8d e1 1b be
       0.0969025 -0.43164703 0.16075851 -0.1522276
0001a0 0e de 97 be c5 f8 1d 3e 12 46 09 bf a3 6f 23 bf
       -0.29661602 0.1542693 -0.53622544 -0.6384222
0001b0 72 63 80 be a8 d2 cd 3e 26 e5 0c 3f 5f 24 fc be
       -0.2507587 0.4019978 0.5503715 -0.492465
0001c0 18 ff 67 be 47 48 a5 3e 4d 38 20 bf 47 73 37 bf
       -0.22655904 0.32281706 -0.6258591 -0.71660274
0001d0 d6 53 b5 be 22 02 3a 3e 28 48 3a 3e b7 ea e2 be
       -0.35415524 0.18164876 0.18191588 -0.44319698
0001e0 01 a7 82 be 59 e0 cb 3e 42 b3 0f 3f bb 0c 9e 3c
       -0.2551804 0.398196 0.561329 0.01929318
0001f0 a9 52 97 3e fb de d1 bd 30 94 c2 bb bb 64 09 3f
       0.29555252 -0.10247608 -0.0059380755 0.5366933
000200 5b 23 df 3e 43 46 83 3e 8e 88 04 bc 9a c1 a0 3e
       0.43581662 0.25639543 -0.008089198 0.31397706
000210 c3 48 5a bf 63 a3 1e bf e1 31 59 3d 2b 3f 43 3e
       -0.85267276 -0.6196806 0.053026084 0.19067065
000220 d9 87 87 be 6a 30 08 3e 0e f7 b8 3e c7 cd b8 be
       -0.2647083 0.13299718 0.36125988 -0.36094496
000230 fd 9e 32 3e 8a 41 13 3e e6 2f 7e be 3c a0 16 3e
       0.17443462 0.1438047 -0.2482296 0.14709562
000240 8e c5 f8 be 3c c5 93 be 63 17 ac 3e ba cc f5 be
       -0.48588222 -0.28861415 0.33611593 -0.48007756
000250 f2 4c f5 bc ad e0 ae 3e 4f 41 dd be 12 0d da 3d
       -0.029943917 0.3415579 -0.4321389 0.10647024
000260 be 77 20 3f eb b4 b0 be ba ad e7 bd ac 6a b6 3e
       0.6268271 -0.3451303 -0.113124326 0.3562826
000270 8f 3d d1 be bd ab 6e bd 97 43 89 3e ad 7c 58 be
       -0.40867278 -0.05826925 0.2680938 -0.2114131
000280 53 48 8d 3d f0 32 11 3f 93 1b 8a 3e 61 ed c8 be
       0.068985604 0.5671835 0.26974162 -0.39243606
000290 16 8d 96 be ba e4 f0 3e 52 8b 5a be 9f dd 0a bf
       -0.29404515 0.47049505 -0.21342209 -0.54244417
0002a0 33 77 b5 3e 59 7e 9f 3d 44 53 e6 3e 28 32 c6 3d
       0.35442504 0.07787771 0.44985402 0.09677535
0002b0 a8 79 2a 3b 17 f3 be 3e a1 af 63 3e 26 e8 c9 3e
       0.0026012454 0.37294838 0.22234966 0.39434928
0002c0 b5 5d 61 3e 98 b3 81 3d 9d 9f d2 3d 8a b7 99 be
       0.22008403 0.06333083 0.1028435 -0.30022842
0002d0 cc 38 74 3d 5e da 10 bf 1b 2c 01 bf 0b 32 85 be
       0.05962448 -0.565832 -0.50457925 -0.26014742
0002e0 d2 43 ba 3e d1 79 dd 3e 79 65 49 bd c8 db 8f 3e
       0.36379868 0.43257 -0.049169037 0.28097367
0002f0 e9 ae b8 3e 1c 63 ab 3e 83 e4 c4 be cc 3f 9e be
       0.36070946 0.33474052 -0.3845559 -0.30908048
000300 42 8e 70 3e 5e e8 f4 3e b8 35 c8 3e b9 ba 38 bc
       0.23491767 0.47833532 0.39103484 -0.011274987
000310 b8 24 89 be 88 a8 e3 3d c3 00 e4 be ec 92 33 3e
       -0.26785827 0.11116129 -0.4453183 0.17536515
000320 68 db 0b 3e 02 d0 ad 3e 01 47 49 3e d5 53 95 3b
       0.13657916 0.3394776 0.19655992 0.0045571127
000330 e4 f7 ca 3e 15 1e 12 3e 6b 9a 26 bf 1c 70 c1 be
       0.3964225 0.14269288 -0.65079373 -0.37780845
000340 48 50 e4 3e a1 ed ac bd 61 ba 71 3c f2 2c 15 3f
       0.445925 -0.084437616 0.014753909 0.58271706
000350 81 cc da be 12 95 5c 3e a9 c0 14 be 93 69 aa be
       -0.4273415 0.21541241 -0.14526619 -0.33283672
000360 91 e1 07 3f 45 00 7b be 63 33 c4 be 37 d4 84 3e
       0.5307856 -0.24511822 -0.38320455 0.25943157
000370 4f 4c d6 be ff 60 8a bd 6a c2 b3 be b7 d2 8a be
       -0.41855094 -0.06756782 -0.35109264 -0.27113888
000380 df c8 c2 be cc 5b 00 3f 33 d9 f9 3e a6 60 ad 3e
       -0.38043877 0.5014007 0.48798522 0.338628
000390 af 4d 24 3d 4f 5e f4 3d a5 85 ab be d4 1c e4 be
       0.040113147 0.119320504 -0.335004 -0.44553244
0003a0 9d 9b 2a bf 26 73 03 bf 95 af 78 3c 78 fc 4c 3f
       -0.666437 -0.5134758 0.015178581 0.80072737
0003b0 c2 19 10 3f 6d 48 21 bf ee 2f b2 bd d2 38 af 3e
       0.56289303 -0.6300114 -0.08700548 0.34223038
0003c0 21 f8 22 bf 6d 46 fb be 50 01 23 3e a6 e1 d2 be
       -0.63659865 -0.49077168 0.1591847 -0.4118778
0003d0 1a b5 3c bd 71 d4 db 3e bd 77 d7 be b7 26 0a bf
       -0.04607115 0.42935517 -0.4208354 -0.53965324
0003e0 16 df a4 be f7 bc ef 3e 77 a9 a9 bd c4 2f 6d be
       -0.3220145 0.46823856 -0.08284276 -0.23162752
0003f0 67 4f 04 3f 1b 39 18 3f 6e 4d ba 3e 42 f1 fe 3d
       0.5168366 0.59462136 0.363872 0.1244836

bias f4 [32]
000000 00 34 a9 bd 51 53 92 bc 6b 90 73 be c9 94 24 3e
       -0.08261871 -0.017861994 -0.2378556 0.16072382
000010 98 5e 8e be ae 28 0f 3e 9e 8f 1d bd a3 56 39 3e
       -0.27806544 0.13980362 -0.038467042 0.18099456
000020 10 a5 5d bc e4 94 9b be 99 08 d9 bd 0b 2c 86 3e
       -0.0135281235 -0.30387032 -0.10597343 0.26205477
000030 36 e6 66 3e 44 f3 12 be 61 d4 92 bd 5a 49 dd bd
       0.22548756 -0.14350611 -0.07169414 -0.10805006
000040 c4 7d 27 bd 86 4c ed bd 5b 6f fc bb bd a0 25 be
       -0.040891424 -0.11586861 -0.0077037043 -0.16174598
000050 b9 07 27 bd b7 f1 1f be a6 59 3a bd 7c 96 80 bc
       -0.04077885 -0.1561955 -0.04549565 -0.015696757
000060 09 18 6e 3e 8e 37 71 3e 14 31 a9 ba 89 c9 86 3e
       0.23251356 0.23556349 -0.0012908303 0.26325634
000070 51 e1 98 bc b1 0b bc bd 2d 52 64 bd 22 4e cc 3c
       -0.018662127 -0.091819175 -0.05574243 0.0249396

weight f4 [64, 32, 3, 3]
000000 0c e8 54 be 97 bb bb bd 71 bc 8d 3d d4 e2 88 3d
       -0.20791644 -0.09166639 0.06920708 0.06683889
000010 de b6 04 be e0 13 ad 3d 31 cd 8f 3d 75 e2 d5 bb
       -0.12960383 0.084510565 0.07021559 -0.00652724
000020 4f 0b 81 3d 0b 8e a0 be 41 8f b6 bd f5 d8 a5 3d
       0.06300985 -0.3135837 -0.08914042 0.08098022
000030 c2 3d 04 3b 7c 77 cf bd 78 44 d3 bc e3 9b 41 3d
       0.0020178412 -0.10130212 -0.025789484 0.047267806
000040 a8 0b a2 3d 60 bf 37 3d ce d8 07 bd 13 08 46 3b
       0.079123795 0.044860244 -0.033165745 0.0030217215
000050 e6 46 1d 3e 6b 49 22 be 74 ad 05 be 2d 27 f9 3d
       0.15359077 -0.15848319 -0.13054448 0.12165675
000060 d3 a4 06 3d 62 d2 83 3d f1 b5 a6 3d 8a ae 4e be
       0.032872032 0.06436612 0.08140171 -0.20183769
000070 5f 00 a6 bd 13 84 eb bc 01 ee df bb 01 8b 73 bd
       -0.081055395 -0.028749501 -0.006833792 -0.059458736
000080 22 91 9b be 41 16 b5 3a ef 5b fc 3a 9a dc a3 3b
       -0.30384165 0.0013815836 0.0019253473 0.005000663
000090 16 88 29 be 50 43 3f 3e 26 75 a1 3d 30 4a 7e be
       -0.16555819 0.18678021 0.078836724 -0.24832988
0000a0 54 a5 fb 39 51 a6 51 be dd 5a 2c be 01 db 12 3e
       0.0004799763 -0.20473601 -0.16831537 0.14341356
0000b0 37 90 6b bd c9 bb b5 bd 43 71 4d bc 63 24 84 3d
       -0.05751058 -0.08873708 -0.012539211 0.06452253
0000c0 f4 20 8c bd aa 4f 8c bd 9a c5 9a 3c 0b 27 37 3a
       -0.06842223 -0.06851132 0.018893052 0.0006986714
0000d0 b8 d5 ee bc 82 48 88 3d 36 7a 39 ba dc 4c 54 3d
       -0.029154643 0.06654455 -0.0007075401 0.05183111
0000e0 04 62 c9 bd d3 92 16 be 3a b0 3e be 50 ca bc bc
       -0.09833148 -0.14704446 -0.18621913 -0.023045689
0000f0 18 24 ad 3a 20 07 72 bd 81 85 c2 bc bc d6 9e 3c
       0.0013209609 -0.059088826 -0.0237453 0.019389503
000100 65 31 2c 3d b2 91 6e be ba 62 4a bd 77 61 12 bd
       0.042039294 -0.23297766 -0.04941056 -0.03573748
000110 40 09 dc 3c bf d0 35 bd 66 69 a7 bd b8 fb 33 bd
       0.02685988 -0.04438853 -0.081744 -0.04394123
000120 26 47 89 be 61 04 29 3e 13 8d a3 3d 57 4c 1c 3d
       -0.26812094 0.16505577 0.07985892 0.03815874
000130 f7 7a 1d 3e f7 e1 e9 bd b5 ad 68 3c a2 08 68 3e
       0.15378939 -0.114200525 0.014201571 0.22659543
000140 d7 07 46 3c 06 7b 4c be b0 35 20 bd 8e d8 ae 3d
       0.01208683 -0.19968805 -0.0391137 0.08537398
000150 e0 4e c1 bd e9 6a c3 bd 93 fc de 3c 26 63 39 bd
       -0.09438872 -0.09541876 0.027220046 -0.04526057
000160 23 f8 4a 3c a5 71 d7 3d a9 1f 53 be 0e e9 0a bd
       0.012388262 0.10519723 -0.20617546 -0.033913665
000170 da 25 fc 3d 08 31 8d 3d ef b7 25 bd 1b cf 59 bd
       0.12311907 0.068941176 -0.040458616 -0.053176027
000180 a3 17 5b bb 27 c9 2d 3d ea 51 8d 3d 3f c2 3a be
       -0.0033430837 0.042428162 0.069003895 -0.18238162
000190 37 f7 09 3d 27 02 bb be c4 58 ca bd aa 6d f7 bd
       0.033683028 -0.3652508 -0.09880212 -0.12081464
0001a0 e1 1f fc be ce c2 97 bd 6b 5c 66 bd 5a 29 b7 bd
       -0.49243072 -0.07410203 -0.05624048 -0.08943434
0001b0 31 53 18 3d 9b 61 c9 bc 6a 7b 76 bd 97 e4 a2 bd
       0.037188713 -0.024582675 -0.06017629 -0.07953756
0001c0 6a 3f 5d bd b0 af 04 3e 23 e4 3e 3c fe a8 ac bd
       -0.054015554 0.12957644 0.011651072 -0.0843067
0001d0 6f c6 a5 bc 54 15 b5 3b ca 84 da bd ce b9 3b 3e
       -0.020236222 0.005526224 -0.10669859 0.18332598
0001e0 e2 6f f3 3c 3c 20 16 be f9 48 52 3e 5a 00 de 3a
       0.029716436 -0.14660734 0.2053565 0.0016937361
0001f0 2a 5c 58 3d 9c d7 2f 3d a0 7e 02 3e c6 0c 86 3d
       0.05282227 0.04293023 0.12743616 0.06545405
000200 12 4e 95 3d ce 0c 97 bd 5f 45 02 be 1f 20 a1 3e
       0.07290281 -0.07375489 -0.12721775 0.3146982
000210 bd 3d 14 3e 9c 41 c6 bd c3 c1 f7 bb 0a b6 2a be
       0.14476676 -0.09680483 -0.00756094 -0.16671005
000220 04 62 67 bd 46 53 7b bd 2d 45 0d be c2 a1 d1 bd
       -0.05648996 -0.061358713 -0.1379592 -0.10235931
000230 ad 32 bb bd b6 be 39 3d 52 19 9c 3c a6 c6 90 bd
       -0.09140525 0.04534789 0.019055042 -0.07069139
000240 14 41 e9 bd e1 b4 20 3d 42 dd 81 3e 7a 20 61 bc
       -0.11389366 0.039235 0.2536412 -0.013740653
000250 64 f5 2b be 3f 9b f7 3d 37 07 35 bd 41 b4 b4 bd
       -0.16792828 0.12090158 -0.044196334 -0.08823443
000260 f4 72 d3 3d cb aa e1 bd 83 6a 2d 3d b1 bb 2c 3e
       0.1032466 -0.11018904 0.042337906 0.16868474
000270 bc bf 3a bd 83 60 06 be 7b 57 20 3e 1b 88 cf bd
       -0.04559301 -0.13122754 0.15658371 -0.10133382
000280 d1 1c 9a bc 1e 42 15 3e 7c 78 92 be 13 de 8f 3d
       -0.018812569 0.14576003 -0.28607547 0.07024779
000290 97 ad b4 3d fd 05 09 bc 5e 18 5d 3d df bd 50 be
       0.08822172 -0.008363244 0.053978316 -0.2038493
0002a0 ba 30 72 3c 3c a0 e9 3d 58 2c 2c bc 41 5d 12 bd
       0.014782125 0.114075154 -0.010508619 -0.035733465
0002b0 25 61 27 3d 34 19 9c bc a1 cb e0 bd 3b 63 6c be
       0.04086413 -0.019054987 -0.10976339 -0.23084728
0002c0 44 58 42 3d 2e d3 89 3d e9 a2 75 3c 99 fa 29 bc
       0.047447458 0.067297325 0.014992454 -0.010374689
0002d0 1c 96 8b be 08 45 c3 bd 78 e3 44 3e 49 16 3a 3d
       -0.27262962 -0.09534651 0.19227397 0.04543141
0002e0 54 00 9c bd fd 63 3b bd 6f 1b 94 3d c1 e2 15 3d
       -0.0761725 -0.045749653 0.07231795 0.036593203
0002f0 44 b2 58 3d 4c 4a 5b bc e3 00 09 3b a4 9f dd 3d
       0.052904382 -0.013384413 0.002090507 0.10821465
000300 df 20 24 3d b7 36 0c bd a2 38 37 bc 91 61 d6 3c
       0.04007041 -0.034231868 -0.011182936 0.02616957
000310 6d 0b 2f 3d 17 bf 8e 3b 94 3f 0b be 49 02 42 be
       0.042735506 0.004356276 -0.13598472 -0.18946184
000320 91 4c 15 be 7e 1e df bc ef 90 ab bd 73 4d ab bd
       -0.14579989 -0.02723622 -0.08377253 -0.08364382
000330 9c 23 5c bd e6 ec 22 3d ed 64 aa 3c 49 9e 9b be
       -0.053744897 0.039776705 0.020800078 -0.303942
000340 d7 73 af 3c 25 5b 1e be 61 fe b5 bd d8 7b e3 bd
       0.021417541 -0.15464456 -0.088864096 -0.11107606
000350 6b 0b 57 be 85 2d e3 bc 0f e6 f4 bd 96 c5 c7 bd
       -0.2100045 -0.027731666 -0.11957943 -0.097544834
000360 13 55 70 be e3 b3 d2 b9 4b 33 cd be 9f 9b 22 be
       -0.23469953 -0.00040188347 -0.40078196 -0.15879677
000370 57 6d 8f bd f2 26 cf be 81 c4 0c be e9 47 97 bd
       -0.07003277 -0.404594 -0.13746835 -0.07386763
000380 ca e6 28 be c6 9d a2 3d 19 1d 17 3d 14 47 8d be
       -0.16494289 0.07940249 0.036892984 -0.2759329
000390 70 fc a2 bd 12 7b ae bd 8b ad 6c be c7 9c ba bc
       -0.07958305 -0.085195675 -0.23113076 -0.022779835
0003a0 63 10 0b be ec eb 39 be b4 91 2c 3e c9 2c f4 3d
       -0.1358047 -0.18156403 0.16852456 0.119226046
0003b0 4e 76 54 3e ff 43 0d 3d d6 81 b3 bc 6e 5f bf 3e
       0.20748255 0.034488674 -0.021912497 0.37377495
0003c0 7d 66 1c 3e d1 88 35 be ab 03 9f 3d 25 1f 50 3d
       0.15273471 -0.17727973 0.077643715 0.05081095
0003d0 a9 c7 7e bd 85 59 48 be a0 ae 32 3d 77 6b 31 bd
       -0.06220213 -0.19565399 0.043623567 -0.043315377
0003e0 55 dd 3c 3d 16 89 ce bd 8a 24 61 bd 0c 3b b6 bb
       0.046109516 -0.10084741 -0.054966487 -0.005561238
0003f0 e3 06 01 3e 0f fd 38 3e 7e 17 5b be 52 6a 1a be
       0.12600283 0.18065284 -0.2139568 -0.1507962

bias f4 [64]
000000 7f 8c 90 bd b8 d8 fb bc 84 39 2c bd 24 4a 08 be
       -0.070580475 -0.030742988 -0.04204704 -0.13309532
000010 1f 5a 3c bd 13 89 bb bd 2b 79 a1 bd d0 1b 46 bd
       -0.045984384 -0.09157004 -0.07884439 -0.048366368
000020 26 08 67 bd 9a dd 1f bd c2 b4 7e bd d1 9b 94 bd
       -0.056404255 -0.039029695 -0.062184103 -0.07256282
000030 ac 06 f3 3b 1c 40 6d bd 91 df 1e be d6 96 5d bd
       0.007416567 -0.057922468 -0.15514971 -0.054098926
000040 e1 19 85 bd e9 7e c6 bd 4b 26 64 bd 79 eb 3f 3d
       -0.06499077 -0.09692175 -0.05570058 0.046855424
000050 a9 77 ac bd f6 b9 a2 bd 57 6c 40 3c af 7c 8f bd
       -0.08421261 -0.079456255 0.01174458 -0.070062034
000060 9e 24 5c bd c6 3a fb 3c 19 bd 36 bd 29 25 36 3d
       -0.05374586 0.030667674 -0.04461393 0.044469032
000070 49 f1 52 bd c4 2f 7c bc be f9 49 bd a9 4a a3 bd
       -0.05149964 -0.015392248 -0.04931044 -0.07973225
000080 75 e0 9f bc 88 7a cc bd 1e 1d 9b bd 95 49 9d bd
       -0.01951621 -0.099843085 -0.07573913 -0.0768005
000090 3d 40 17 be c3 70 c6 bd 04 d9 d9 bd b0 27 41 3b
       -0.14770599 -0.09689476 -0.106370956 0.0029473118
0000a0 ca 66 c7 bd 6c 22 87 bd 20 00 ce 3c 00 91 d9 bc
       -0.09736402 -0.06598362 0.025146544 -0.0265584
0000b0 ae c3 0b be ae 61 9d 3c a6 3c 6a bd 2f 9e d1 bc
       -0.13648865 0.019211616 -0.057186745 -0.025588123
0000c0 f9 91 bc bc 56 ce fe 3b 8f 22 70 bd 1d 61 1a bd
       -0.023018824 0.007776062 -0.058626708 -0.03769027
0000d0 5b 5a a1 bd 59 f9 3d bd 1d 9e ab bc 1a cf 1e be
       -0.07878562 -0.046380375 -0.020949418 -0.1550869
0000e0 ec 47 aa bd fb 41 7e bd de 4f d6 3c ec d5 8b bc
       -0.08314499 -0.062074643 0.02616113 -0.01706978
0000f0 84 ed 83 bd b0 26 37 bd e9 f5 86 bc 42 45 63 bd
       -0.06441787 -0.04471463 -0.016474681 -0.05548597

weight f4 [10, 3136]
000000 d5 3f 6a bd 64 66 1f bd 2d ac dc bc 39 10 09 3d
       -0.05718978 -0.038916007 -0.026937569 0.033462737
000010 a3 f4 68 bb b7 01 10 bc c8 de 41 bd 0b 5f fd 3d
       -0.0035546205 -0.008789471 -0.0473316 0.12371644
000020 4c cb 43 bb d8 c2 eb bd 69 9f 87 3c cf e1 d1 bd
       -0.0029875813 -0.11511773 0.016555505 -0.10248148
000030 db 71 d9 3c e3 e8 17 bb c9 dd 5a 3d 06 91 b4 3d
       0.026543548 -0.0023179583 0.053434167 0.088167235
000040 40 7a 01 be 2b 83 03 be e0 a7 98 3c d2 e6 df 3d
       -0.12644291 -0.12843005 0.018634737 0.10932697
000050 c2 c7 0b bc f3 5c 0b 3e 6a 3b 93 3b 1a 9d 63 3d
       -0.008531513 0.13609676 0.0044931667 0.055569746
000060 c1 ea 92 bd 44 4f 08 3c ab 4f 76 3e 18 cf 7f bd
       -0.07173682 0.00831968 0.24053828 -0.06245336
000070 11 8e 42 3d 17 b4 8a 3c 1e 2b 36 bc b8 d4 23 be
       0.047498766 0.016931577 -0.011118678 -0.15999115
000080 3d 3d bc 3d c2 51 2f 3d 00 d4 b7 3c a7 8f a1 bc
       0.09191368 0.04280258 0.022439957 -0.01972182
000090 ba 05 95 3b 67 14 0f 3e 73 79 8b be 78 ad ae bd
       0.004547802 0.13972627 -0.27241096 -0.0852918
0000a0 88 ba 70 be 60 5d 89 3b 42 e6 8a 3d e9 e0 75 3a
       -0.23508656 0.0041920394 0.067821994 0.00093795225
0000b0 ad 7f fc 3d d9 0e e8 be 96 33 64 be f6 86 4d bd
       0.1232904 -0.45323828 -0.22285303 -0.050177537
0000c0 7d bf da bc 59 e2 5a bb 4b af 78 bd 62 b1 90 bc
       -0.026702637 -0.0033399074 -0.060714047 -0.017662708
0000d0 01 6b 5f bc 88 33 a9 bd c0 ad 79 bd 73 82 27 3d
       -0.013636352 -0.08261782 -0.060956717 0.04089589
0000e0 ba b5 8a 3d 5d 81 d7 bc e3 cc e6 bc 59 a3 16 3d
       0.06772943 -0.026306802 -0.02817387 0.036776874
0000f0 41 e9 df bd 0e 81 00 be ba 15 28 bd 61 ef a3 3c
       -0.109331615 -0.1254923 -0.041036345 0.020011606
000100 1d fa 0c be 78 4d d9 3d 0d 3b cc bc a3 97 0c be
       -0.13767286 0.10610479 -0.024930501 -0.1372972
000110 5c 50 f9 bd 58 4e 15 3d 80 35 8c bd 32 93 23 3e
       -0.121735305 0.036451668 -0.06846142 0.1597412
000120 49 49 95 3d 73 45 5e 3d e7 b0 39 3e 38 69 87 bc
       0.07289369 0.05426545 0.18133889 -0.016529664
000130 72 49 9a 3c 04 d1 36 3d 6a b5 10 3d fe d4 47 3d
       0.01883385 0.044632927 0.03532926 0.04878711
000140 35 68 e9 3c dd ad 12 3e f0 7d b1 3c fa a6 36 3d
       0.028492073 0.14324136 0.021666497 0.044592835
000150 e9 57 be bd 48 ec 58 be 3b 49 1d be 85 d6 8f bc
       -0.09294111 -0.21183884 -0.15359966 -0.017558346
000160 24 31 ca 3d 8f 9d 23 3c e8 f7 04 bd 8e be 28 3c
       0.09872654 0.009986295 -0.032462984 0.010299338
000170 7c 08 e6 bd d6 e2 8c 3c 84 15 04 be 40 62 df bc
       -0.11232087 0.017198008 -0.12898833 -0.027268529
000180 30 27 bf bd e3 f0 37 bd c5 c1 18 bd 27 4a 9c 3b
       -0.09333646 -0.04490746 -0.037294168 0.004769582
000190 36 e0 3e bc 8f eb e5 37 0f e7 0b be 36 59 8e bd
       -0.011650136 2.7408618e-05 -0.1366236 -0.069506094
0001a0 12 90 60 bd e8 22 a5 bc 70 ca ba bd 1a 33 40 be
       -0.054824896 -0.020158246 -0.09120643 -0.18769494
0001b0 3e 53 0c 3e 8b e6 ee bd 57 d1 2e bd 3f 11 9e 3d
       0.1370363 -0.11665066 -0.04268011 0.07718133
0001c0 7c c1 66 bd 94 9e 85 bd 87 5d 0a 3d f7 aa 3c bd
       -0.056336865 -0.06524387 0.0337806 -0.046061482
0001d0 ee 33 5d bd 35 01 8d 3d 7f e9 55 3d 95 46 f9 3c
       -0.054004602 0.06884996 0.052224632 0.030429164
0001e0 04 c7 2d bd c3 e5 26 3d 47 8a 89 bd 14 3b e7 bd
       -0.042426124 0.04074646 -0.067158274 -0.11290565
0001f0 95 0c 22 3e 97 ef 82 3d b0 62 5e 3c b9 b0 bc bc
       0.15825112 0.063933544 0.013573334 -0.023033487
000200 ad 66 a7 bd a5 ac 0a be 88 3c 97 3c 72 8d 26 3d
       -0.08173881 -0.13542421 0.01846148 0.040662237
000210 d4 9a a9 3d 39 12 2a bd 25 f3 7a bd 1e 93 07 bd
       0.08281484 -0.041521285 -0.061267037 -0.033099286
000220 d7 01 95 bd 45 cb 86 3c 3d df 87 bb b7 82 4e bc
       -0.072757415 0.016454348 -0.004146485 -0.012604407
000230 ca 8b df bc c9 27 72 3d 3a f6 03 bd 76 74 b1 bd
       -0.027288336 0.059119973 -0.03221724 -0.08664791
000240 9d 89 f1 bc 30 5f b7 bd af 46 3b 3b fb b2 27 bd
       -0.029484564 -0.089537024 0.0028576066 -0.040942173
000250 5e f0 f2 bc 01 21 1b 3d 5b 47 1c 3d 15 80 35 bc
       -0.029655632 0.03787327 0.038153987 -0.0110779
000260 b5 c9 d1 ba 67 37 89 bc c7 32 4b 3c 1e 32 05 be
       -0.0016005548 -0.01675005 0.012402243 -0.130074
000270 3b b2 71 3d f2 c8 cf 3c f9 96 a2 3d 56 b9 14 3e
       0.059007864 0.025364373 0.07938952 0.14523825
000280 38 8e 1c 3e 78 13 b9 3c 15 c2 1d 3d 16 62 c0 bd
       0.15288627 0.022592291 0.03851517 -0.093937084
000290 01 21 9c bd 7f 8c 8d 3c a9 02 15 3d d7 de af 3d
       -0.076234825 0.017278908 0.03637949 0.08587425
0002a0 30 45 c6 3c 43 8c ab bd 86 77 d7 3b d3 79 3f 3c
       0.024202913 -0.08376362 0.0065755276 0.01168676
0002b0 54 6c 46 be 78 1b 93 3c 18 3d 16 3e 9c ca fc 3c
       -0.19377261 0.017957434 0.14671743 0.03085833
0002c0 56 08 c3 3c d0 1c 2b bc 16 f5 08 bd b1 72 11 be
       0.023807686 -0.010443881 -0.033436857 -0.14203908
0002d0 d1 99 bf bd a7 79 52 bd af 59 fd bc b8 8f bb 3c
       -0.0935551 -0.051385548 -0.030926554 0.022895679
0002e0 8e 94 5a 3d 44 c4 19 be 11 42 6d be 17 09 37 be
       0.05336433 -0.15016276 -0.23169734 -0.17874561
0002f0 85 3a 43 bd f5 16 7b 3b 08 e9 30 bc 16 82 45 3d
       -0.04766323 0.0038313244 -0.0107977465 0.048219763
000300 39 a1 c4 3d 7c e6 0e be 69 8e d0 3d 59 17 d6 bd
       0.09601063 -0.1395511 0.101834126 -0.10453672
000310 91 57 26 be 7a 55 16 be 2a 91 2d be 82 1f 1c 3d
       -0.16244341 -0.14681044 -0.16949907 0.038115986
000320 8a 2f 41 bc 44 d9 8f 3d 2e 21 53 bd 01 0d d6 bd
       -0.011791119 0.07023862 -0.051545314 -0.10451699
000330 60 43 64 bd 85 59 2e be ec 9c 37 bd 3a 91 6c bd
       -0.055728316 -0.17026336 -0.044827387 -0.057755686
000340 e7 8c b8 bc c6 a6 dd bd ac a3 09 bc d4 ed 1a 3c
       -0.022528125 -0.10822825 -0.008400839 0.009456117
000350 2f f9 8c bc 55 3c 60 bc 1d 79 f4 3d 07 55 56 3d
       -0.017208664 -0.013686259 0.11937163 0.052327182
000360 f2 5a 5a bd dc af 08 bd 41 7a b7 3d 8a 54 7d 3d
       -0.05330939 -0.033370838 0.08958865 0.0618482
000370 a5 68 4b bd e0 e3 f3 bb 19 0a d2 3d 12 ff 7d bd
       -0.049660344 -0.0074429363 0.10255832 -0.062010832
000380 7a 82 3b 3d e5 08 b2 3d e1 46 b5 3d 45 91 8b 3a
       0.04577873 0.08693103 0.0885141 0.0010648152
000390 de 07 1b bd bf 31 92 bc f3 d0 5b be 33 3a ce 3d
       -0.0378493 -0.017845986 -0.21466427 0.10069694
0003a0 8c 1a 22 bc 81 04 12 3e 73 55 d1 3d 87 38 da be
       -0.009894025 0.1425953 0.10221376 -0.42621252
0003b0 6c 5c c1 be bc 4d 8c be c8 a6 87 3c 12 d5 59 3c
       -0.37765825 -0.27403057 0.01655902 0.013295429
0003c0 7b e3 28 3e c4 2d ac bd f5 53 a8 be 85 d5 1f be
       0.16493027 -0.084071666 -0.32876554 -0.15608795
0003d0 f5 a3 f7 bd fb b4 51 bd ec f2 a8 bd bb e7 0c bd
       -0.12091819 -0.051197987 -0.08249459 -0.034400683
0003e0 c5 0d ad 3c 40 7d 76 bd fe 6b 5d 3c b2 e5 88 3d
       0.02112473 -0.06017804 0.013514517 0.06684436
0003f0 0f 65 e2 bd 91 3d f8 bc 8d 1d 5a bc 2d ce 84 bd
       -0.11054432 -0.030302795 -0.0133127095 -0.064846374

bias f4 [10]
000000 4e 3a 6f 3d d9 b7 45 3d 7f e0 de 3c 6f 29 e3 bc
       0.058405213 0.048271034 0.027206657 -0.027729718
000010 44 c7 2b bd 1d 9b 32 3c 0a 52 49 bb 0c 31 a0 bc
       -0.04193808 0.01090124 -0.0030719065 -0.019554637
000020 27 74 20 bc c3 f1 db bb
       -0.009793318 -0.00671217
