your_model.pth (torch, 203119 bytes, 6 tensors)

layer1.0.weight f4 [32, 1, 3, 3]
000000 68 7b d5 be 2b a0 04 be 7e 25 4e bd b9 41 da bd
       -0.41695714 -0.12951724 -0.050328724 -0.10657067
000010 f3 76 88 3e 60 ce ca 3e e8 a6 02 3e d9 bf ad 3a
       0.2665325 0.39610577 0.12758982 0.0013256028
000020 fb fd 06 3e ab 39 d9 be 74 b2 e1 be 12 c3 94 3d
       0.13182823 -0.4242681 -0.4408146 0.07263769
000030 a4 78 f9 be d5 d0 6b 3e d5 63 8d 3e 4e e6 02 3f
       -0.48724854 0.23028882 0.27615228 0.5113267
000040 d8 5e 01 3f 5f f0 0b be a2 f8 90 3e 14 d9 92 3e
       0.50535345 -0.13665913 0.28314692 0.28681242
000050 ca 92 0b 3e b6 d5 87 be bf 78 e7 bc 4c f5 26 be
       0.13630214 -0.26530236 -0.028255818 -0.16304511
000060 6b 03 38 3e 1c b1 88 3e be 3b 73 3e 7e d0 88 be
       0.17970054 0.26697624 0.23753259 -0.26721567
000070 03 41 41 bf 18 1a e4 be e8 55 ab bc a9 ef 01 3e
       -0.75489825 -0.44551158 -0.020914987 0.1268908
000080 71 40 68 3d e0 87 0e 3f be 74 e9 3d 1d 96 d8 3e
       0.05670208 0.5567608 0.1139922 0.42302027
000090 0f 32 c3 3e 23 5d 0f 3e fe 15 34 be ff 94 65 3e
       0.3812413 0.14000373 -0.17586514 0.22420119
0000a0 c1 df df bd 26 fd 81 be 0d d9 c4 3e 7c 20 d7 3e
       -0.109313495 -0.2538845 0.38446847 0.4201697
0000b0 d4 44 d0 be 60 88 3f bf a3 ac 72 be 93 0f 9c bd
       -0.40677512 -0.74817467 -0.23698668 -0.07620158
0000c0 19 f2 00 bf 63 12 84 bd ce 50 06 3f 7e 72 72 be
       -0.5036941 -0.064488195 0.5246705 -0.23676488
0000d0 7a 7d d6 3d e1 43 08 3f 32 8c 42 3c 04 40 37 3e
       0.104731515 0.53228575 0.0118742455 0.17895514
0000e0 94 18 84 be 4a 2c 29 3e 2f 5d ea 3e 4c 2d d6 3d
       -0.25800002 0.16520801 0.45774218 0.104578584
0000f0 1b c9 00 3e 06 95 8d be b5 fa 9f be 50 8f 47 be
       0.12576716 -0.27652758 -0.31245962 -0.19488263
000100 e6 8f 8c 3e 82 2c 01 3f b9 c9 6b 3c 64 22 d1 be
       0.27453536 0.5045854 0.014391356 -0.4084655
000110 43 99 08 be 64 df ae bd 6e 97 89 be b2 8e e1 be
       -0.13339715 -0.08538702 -0.26873344 -0.4405418
000120 ca 3c 88 3d 65 3f 35 bf 26 3a 1e bf 74 dc 72 3f
       0.066522196 -0.7079986 -0.6180748 0.94867635
000130 09 e7 1d be 43 73 e7 be 1d c3 01 3f 6a 4e 58 3e
       -0.15420164 -0.45205125 0.50688344 0.21123663
000140 e6 a4 1c 3e 7b 8d ac be ba 7e 40 3e a2 3e 8c 3e
       0.15297279 -0.3370169 0.18798342 0.27391535
000150 df 4c 83 3e 48 90 7b be d6 db 99 3d 42 5f b1 3e
       0.25644585 -0.24566758 0.075126335 0.34642988
000160 4e d9 98 3e c8 02 73 3e 86 c8 0d bf 1b 32 f5 be
       0.2985329 0.2373153 -0.553841 -0.4788979
000170 2e 3c 61 3e 76 c0 be 3e b0 67 dd 3e 13 f0 8e 3e
       0.21995613 0.3725621 0.4324317 0.27917537
000180 2b d2 7b 3e 2f 76 5e 3e 55 ba 1b 3c d1 e3 c6 3e
       0.24591891 0.21724771 0.009504874 0.38845685
000190 73 bd c1 3d d3 52 d2 be a1 30 20 3e a7 f1 31 be
       0.09459963 -0.41078815 0.1564355 -0.1737734
0001a0 db b9 95 be a9 16 1f 3e 48 55 09 bf 34 65 23 bf
       -0.2924336 0.15535988 -0.53645754 -0.638263
0001b0 bd 01 88 be 91 34 cb 3e 21 2a 0b 3f 09 87 02 bf
       -0.26563826 0.39688542 0.5436116 -0.509873
0001c0 dd 9e 5e be f5 f1 a6 3e 38 dd 1f bf 4d 17 37 bf
       -0.21740289 0.32606474 -0.6244693 -0.7151993
0001d0 2a 37 b5 be 01 69 34 3e 24 95 3e 3e 2c b4 e7 be
       -0.3539365 0.17618181 0.1861158 -0.45254648
0001e0 51 2b 82 be eb fd c7 3e 60 bb 13 3f 9a d3 bf 3c
       -0.25423673 0.39060912 0.57707787 0.02341633
0001f0 bb 50 98 3e ce 51 b6 bd 16 3a 1e bc 87 18 08 3f
       0.29749092 -0.08902322 -0.009657403 0.53162426
000200 ef 45 dc 3e 6b fb 80 3e a7 10 59 bc ec cc a5 3e
       0.43022105 0.25191817 -0.013248599 0.32382905
000210 df e0 59 bf 16 1b 1e bf 9a f4 61 3d fb 25 36 3e
       -0.8510875 -0.6176008 0.05516491 0.17787926
000220 f8 bb 91 be 05 db 1a 3e f2 91 b3 3e 14 97 ab be
       -0.2846372 0.15122612 0.35072285 -0.335137
000230 71 6c 3f 3e 19 49 02 3e c1 c1 77 be 50 69 23 3e
       0.18693711 0.12723197 -0.24195005 0.15958142
000240 da 94 f6 be 36 03 94 be 66 60 aa 3e 88 f9 fa be
       -0.4816044 -0.289087 0.3327667 -0.49018502
000250 32 b0 3b bd 32 1d ad 3e 71 08 eb be ec ef c4 3d
       -0.04582233 0.33811337 -0.45904878 0.09616074
000260 88 45 20 3f 62 0d b3 be 7b 02 d4 bd 60 19 b8 3e
       0.62606096 -0.34971148 -0.103520356 0.3595686
000270 ec 62 d8 be 24 99 7c bd b2 75 8a 3e 01 d3 61 be
       -0.4226297 -0.061669484 0.2704292 -0.22053148
000280 12 29 6a 3d 47 89 11 3f 7b 9d 76 3e 45 7f d8 be
       0.057168074 0.56850094 0.24083512 -0.422846
000290 45 ac 9e be 22 87 e6 3e 44 15 67 be 5d e1 0e bf
       -0.30990806 0.45024973 -0.22566706 -0.5581263
0002a0 be b7 af 3e 63 b7 9c 3d e0 f3 de 3e c6 78 ab 3d
       0.34319872 0.07652166 0.43545437 0.08372645
0002b0 55 23 05 bb 54 8d bb 3e 5e 55 6f 3e c0 f0 cb 3e
       -0.002031525 0.36631262 0.23372409 0.39832115
0002c0 52 06 58 3e 71 b1 7a 3d de b2 c5 3d c9 7b 9c be
       0.21096161 0.061204378 0.09653257 -0.3056319
0002d0 34 c7 71 3d 0e e2 11 bf 58 69 f6 be 50 6f 81 be
       0.059027866 -0.5698556 -0.48127246 -0.25280237
0002e0 81 2a bc 3e e6 33 e9 3e ce 7b 3f bd 31 62 88 3e
       0.36751178 0.45547408 -0.04674893 0.26637414
0002f0 67 3a b3 3e 64 a4 a9 3e 9b 97 c7 be de 44 a0 be
       0.35005495 0.33133233 -0.38982853 -0.31302541
000300 12 16 60 3e 49 b3 f7 3e 27 b0 cd 3e 47 d6 d2 bc
       0.21883419 0.4837897 0.40173456 -0.025736941
000310 df 99 8e be ae 4b f4 3d 7f 17 eb be 5b 28 49 3e
       -0.2785177 0.11928497 -0.45916364 0.196443
000320 9c 7c 18 3e 0e 35 b4 3e 78 82 40 3e ca 85 d3 bb
       0.14891285 0.35196728 0.1879977 -0.006455158
000330 82 bd cf 3e a0 ed 0b 3e f4 bc 2c bf 20 ca ad be
       0.4057427 0.13664865 -0.6747582 -0.33943272
000340 66 39 eb 3e e4 36 b4 bd a8 17 f3 3c 64 c8 16 3f
       0.4594223 -0.08799532 0.029674366 0.5889952
000350 af 75 e0 be e6 b4 6a 3e 54 d7 0c be 33 4e b7 be
       -0.43839785 0.2292057 -0.13754016 -0.3580185
000360 0c 90 0a 3f eb 27 82 be 2e 45 ca be 66 7d 7b 3e
       0.5412605 -0.2542108 -0.39505905 0.24559554
000370 6f 29 ef be f9 ed ad bd 45 f4 95 be 42 c8 60 be
       -0.467113 -0.08492655 -0.29287925 -0.21951392
000380 1e a8 c9 be ec 88 f9 3e 96 4f f5 3e 1f 44 ab 3e
       -0.39386076 0.48737276 0.47912282 0.3345041
000390 e1 d3 08 3d 34 7c e3 3d 11 e4 a7 be 67 7b ed be
       0.03340519 0.11107674 -0.32791188 -0.4638321
0003a0 1b 5a 31 bf 35 5d 01 bf b3 55 0b bb d0 ed 4d 3f
       -0.69278115 -0.5053285 -0.0021260798 0.80441
0003b0 d2 9e 0f 3f ff b1 23 bf 9f f5 91 bd 90 61 b6 3e
       0.56101716 -0.63943475 -0.07126927 0.3562131
0003c0 95 ae 25 bf 1b 36 fe be b7 72 21 3e d5 e2 c0 be
       -0.64719516 -0.49650654 0.15766416 -0.3767306
0003d0 3e 89 3e bd c3 9a d7 3e c1 d5 c7 be ff d2 09 bf
       -0.046517603 0.4211026 -0.3903027 -0.5383758
0003e0 79 70 a8 be b9 73 f8 3e 3e 26 b5 bd be fc 75 be
       -0.3289831 0.4852579 -0.08845185 -0.24022195
0003f0 50 29 01 3f 5e 75 16 3f 29 f5 b8 3e a4 25 fa 3d
       0.5045366 0.5877284 0.36124542 0.12214211

layer1.0.bias f4 [32]
000000 30 e5 c7 bd 47 f8 89 bc dc 29 77 be 1e 49 27 3e
       -0.09760511 -0.01684202 -0.24137062 0.16336486
000010 5f 85 8d be 15 29 0b 3e 92 93 5f bc b3 9a 3a 3e
       -0.27640817 0.1358989 -0.013646023 0.18223076
000020 37 fd b6 bb 66 64 94 be e8 e9 d1 bd 45 2b 82 3e
       -0.005584385 -0.28982848 -0.10249692 0.25423637
000030 ec 4c 64 3e e7 6f 0c be fa 8e a4 bd 28 ae 03 be
       0.22294968 -0.13714562 -0.08035083 -0.12859404
000040 55 7d 3b bd f6 50 ef bd 05 aa 42 bc d3 a5 3d be
       -0.045773823 -0.11685364 -0.011881356 -0.18520288
000050 22 89 06 bd 67 57 17 be aa 94 5d bd dd c3 bd bc
       -0.032845624 -0.14779435 -0.054096855 -0.023164684
000060 39 ad 68 3e 78 55 72 3e ee dc 3c bb 21 7d 84 3e
       0.22722329 0.23665416 -0.0028818208 0.25876716
000070 9c 50 b1 bc e1 0d ce bd 7b c8 78 bd c2 e7 ed 3c
       -0.021644883 -0.10061241 -0.060738068 0.029041175

layer2.0.weight f4 [64, 32, 3, 3]
000000 89 a2 84 be c8 e3 df bd 03 be 74 3d b6 3d df 3d
       -0.25905254 -0.10932118 0.05975152 0.10900442
000010 0d f2 bb bd 6a 62 b7 3d 00 b5 85 3d d9 9b 82 bd
       -0.09177027 0.08954318 0.06528664 -0.06377382
000020 98 1f 61 3d d6 7d 76 be ff 63 a2 bd 7f 5f 8d 3d
       0.05496177 -0.2407144 -0.07929229 0.0690298
000030 3b 56 54 3d 7e 22 e2 bb 65 66 fe bc 2f 9a 7a 3d
       0.05184005 -0.0069010844 -0.031054685 0.061182197
000040 6f 51 78 bc 9b c6 9c 3c fd 7c 4d bd a8 cb 43 bc
       -0.015156134 0.019137671 -0.050168026 -0.011950411
000050 2e 59 29 3e 4a 8b ca bd 8a 4b f7 bd 9b aa de 3d
       0.16537926 -0.098898485 -0.12074955 0.10872384
000060 7f 18 8e bb 66 b6 63 3d e4 30 c1 3d fe ae 04 be
       -0.0043364163 0.05559387 0.09433153 -0.12957379
000070 1e 6a f7 bd c0 ae 9b bd bf 1c 1b 3d 43 7d 4c bd
       -0.12080787 -0.0760169 0.03786921 -0.049924146
000080 de 05 8f be d1 56 c9 39 06 4d 61 bd 1e bc 1a 3b
       -0.27934164 0.0003840239 -0.055005096 0.0023610662
000090 c3 2e e4 bd be 2a 2a 3e c9 79 98 3d d0 bb 21 be
       -0.111417316 0.16617867 0.07445104 -0.15794301
0000a0 5c b8 df 3c bc e4 27 be 52 bd 89 be 3f a6 bf 3d
       0.02730959 -0.16395849 -0.26902252 0.09357881
0000b0 ba d1 9c bd fa c8 a1 bd 5a 72 f5 3c 77 da 6c 3d
       -0.0765719 -0.07899661 0.029961754 0.05782553
0000c0 6f ad 97 bd bf 16 a6 bd 3f a0 00 3c 1f 4b 2e bd
       -0.07406127 -0.08109807 0.007850706 -0.04255211
0000d0 6e 7b ce bd 88 7d a7 3d 96 ab d8 bc 39 44 f6 3c
       -0.10082136 0.0817824 -0.026449006 0.030061828
0000e0 87 36 ba bd e1 aa 10 be e3 5c 09 be fd d0 2a bc
       -0.090924315 -0.14127685 -0.1341434 -0.010425803
0000f0 1c 09 5e 3d 90 80 f4 bb f1 c0 79 bd 2e 7f b1 ba
       0.054207906 -0.007461615 -0.06097502 -0.0013541931
000100 8b be 37 3d 9d 4f 62 be 9a 1a 98 bd 84 08 ba bd
       0.04485945 -0.22100683 -0.07426949 -0.090836555
000110 15 d5 eb 3c 45 a5 a2 bd 38 64 53 bd 33 90 3b bd
       0.028788129 -0.07941679 -0.051609248 -0.045791816
000120 44 59 72 be 77 fa 5b 3d 56 56 11 3c b3 48 06 3e
       -0.23666865 0.05370566 0.008870682 0.1311367
000130 a4 ed 57 3e 09 da 06 be 0a 33 a5 3c 5d 16 10 3e
       0.21086746 -0.13169111 0.020165939 0.14071031
000140 2f 54 a7 3d 09 9c 52 be c2 b6 90 bd c8 0a ad 3d
       0.081703536 -0.20567335 -0.07066108 0.08449322
000150 d1 23 31 3b 43 5d 54 bd da 79 bf 3b 36 8f 35 bd
       0.0027029405 -0.051846754 0.0058433833 -0.04432603
000160 27 e1 32 bd cf b4 c0 3d e1 ef 54 be 9b 38 9d bd
       -0.043671753 0.094094865 -0.20794632 -0.07676812
000170 b6 42 df 3d 46 99 dc 3d ce f0 df 3c ac a8 60 bd
       0.10901396 0.10771422 0.027336504 -0.054848358
000180 5c 67 a8 3c 55 10 db bb 73 3d 4d 3d 07 14 1b be
       0.020557098 -0.0066852965 0.05010743 -0.15144359
000190 2a 43 11 3d cc 10 a0 be 56 db d6 bd f8 4e 0c be
       0.035464443 -0.31262815 -0.10491054 -0.13701999
0001a0 1c e0 d3 be b2 61 bf bd 2e 51 57 bd 5e 6e 12 be
       -0.4138192 -0.09344806 -0.052567653 -0.14299914
0001b0 e4 b7 f8 3b 42 26 cd bc 51 c0 75 bd 3d dd c1 bd
       0.007590281 -0.025042657 -0.05999786 -0.09466026
0001c0 eb 1a d4 bd 25 c3 00 3e 83 9e 47 3b be 91 b6 bd
       -0.10356697 0.12574442 0.003045947 -0.08914517
0001d0 7d 5d 0a 3d 0a cd ad bd 4d 08 27 be 68 77 3c 3e
       0.033780564 -0.08486374 -0.1631176 0.18404925
0001e0 b9 6c 14 3d 31 60 8e bd 59 c6 55 3e f3 2d 13 3c
       0.0362365 -0.06951941 0.20876445 0.008983123
0001f0 c8 72 a0 3c 9d 1c 84 3d bb 04 c8 3d e9 b2 8f 3d
       0.019585982 0.0645077 0.09766527 0.07016546
000200 5f 14 8e 3d 1d 4f 22 bd 1b a8 66 be 2e 08 a1 3e
       0.06937479 -0.03962623 -0.22525065 0.31451553
000210 c6 85 84 3e 3b 00 85 bd d1 c9 3f 3d 03 c6 3c be
       0.2588331 -0.064941846 0.046823326 -0.1843491
000220 9c b4 9b bd 00 c6 52 bd f7 bb f3 bd 1d 90 ca bd
       -0.07602808 -0.05145836 -0.11901086 -0.09890769
000230 85 f0 02 bd 2e c4 06 3d 1b 0d d4 bc 7c 91 a7 3b
       -0.03196766 0.032901935 -0.025885155 0.0051137786
000240 6c dd 35 be 8d a7 df 3d 82 ea 82 3e aa 2e e4 bd
       -0.17760247 0.1092063 0.2556954 -0.11141713
000250 4e a9 3d be b9 5c d0 3d 3d 2b 12 be b2 09 25 be
       -0.18521616 0.101739354 -0.14274307 -0.1611698
000260 8e dd 02 3e 95 4b 39 be d3 6a da 3d 87 82 2e 3e
       0.12779829 -0.18095239 0.10664906 0.1704198
000270 a9 81 dd bd cf f6 17 be a1 e7 13 3e 63 67 4a be
       -0.10815746 -0.14840244 0.14443828 -0.19766001
000280 92 c5 ca bd 74 83 2c 3e 3e 98 40 be c1 30 a0 3c
       -0.09900965 0.1684702 -0.18808076 0.019554498
000290 4c 53 85 3d 0a 7a 92 3d 18 d9 92 3d 3c 53 65 be
       0.06510028 0.07152183 0.071703136 -0.22395033
0002a0 57 92 10 bd d0 21 53 3d 41 61 dd 3d e5 e5 a6 bd
       -0.03529581 0.051545918 0.10809565 -0.08149318
0002b0 aa 0c df 3c af 2e db ba 5d 03 7f bd 33 8f 4d be
       0.027227718 -0.0016722287 -0.062259067 -0.20074157
0002c0 15 93 56 3d 69 b9 07 3e e3 7d 03 3d ec ae 2e bd
       0.052386362 0.13254322 0.032102477 -0.042647287
0002d0 15 2e 44 be 51 bb 1e be a8 4e 3a 3e 3c 64 78 3d
       -0.19158204 -0.15501143 0.18194067 0.060642466
0002e0 ea 4c 7f bd 81 84 e1 bc 51 cd 84 3d a9 c3 ab bc
       -0.06232921 -0.027529003 0.064844735 -0.020967321
0002f0 ad 06 91 3d 40 c7 d4 bd eb f7 ae bd df 30 ac 3d
       0.070813514 -0.103895664 -0.0854338 0.08407759
000300 43 8c aa 3c 7a 40 68 3d 87 49 2e 3c 10 b6 84 3d
       0.020818835 0.056702115 0.0106376475 0.06480038
000310 90 0e 4a 3d 66 8f bc bc e3 c4 14 be 47 f3 1f be
       0.049330294 -0.023017596 -0.14528231 -0.15620147
000320 14 9e 0d be 84 04 eb bc c5 dc 29 bd 32 ec 18 bd
       -0.13829833 -0.028688677 -0.041470308 -0.03733463
000330 a7 1b b9 bd 19 fb ad 3d a2 f4 48 bd 77 d5 90 be
       -0.090384774 0.08495159 -0.049061425 -0.2828786
000340 1c ce 47 3d df 31 37 be f2 e4 30 be 13 ec 0f be
       0.048780546 -0.17890118 -0.17274836 -0.14054899
000350 1f c7 3d be 40 9a 1d bd 86 3b 72 bd fa c5 2b be
       -0.1853299 -0.038477182 -0.059138797 -0.16774741
000360 0b e3 40 be b7 b5 34 bb bc 2c b5 be 56 51 36 be
       -0.1883661 -0.002757413 -0.35385692 -0.17804465
000370 3a 38 8f bd d5 0b ae be 9c 29 15 be 03 db 6c bd
       -0.06993146 -0.33993402 -0.14566654 -0.057826053
000380 5a 07 3d be b7 42 b4 3d af ba e8 3c 39 61 86 be
       -0.18459836 0.08801787 0.02840933 -0.2624605
000390 d7 c7 a3 bd 9c 60 1c be be aa 78 be 46 8d 68 3d
       -0.07997101 -0.15271229 -0.24283883 0.056775354
0003a0 34 ed b4 bd 83 e3 5d be ed fe fa 3d 58 b4 09 3e
       -0.088343054 -0.2166882 0.122556545 0.13447702
0003b0 41 af 5f 3e 3b 06 1e 3d 4b 59 c4 bd ba 63 bf 3e
       0.21844198 0.03858016 -0.09587344 0.37380773
0003c0 c7 f1 28 3e 2e 28 45 be 7e bc fa 3d 88 58 56 3d
       0.1649848 -0.19253609 0.12242983 0.052330524
0003d0 c2 c7 c3 bc 9a ce 5d be ec b5 09 3d e0 76 8b bd
       -0.023898963 -0.21660843 0.03362076 -0.06809783
0003e0 38 a9 f5 3c 01 2f 1c be 5e c4 6e bd 73 f1 27 3d
       0.029987916 -0.15252306 -0.05829274 0.04100175
0003f0 94 c3 fa 3d 24 5e 37 3e fd 6e 4e be 98 54 0a be
       0.12244335 0.17907006 -0.20159526 -0.13508832

layer2.0.bias f4 [64]
000000 12 fd 97 bd 2c e4 18 bd 3d 5a 38 bd 67 e0 0a be
       -0.07421316 -0.037326977 -0.045007933 -0.13562165
000010 8c 9f 4e bd 68 83 ae bd 43 d8 83 bd 45 63 a6 bd
       -0.050445125 -0.085211575 -0.06437733 -0.08124403
000020 92 fb 43 bd a7 d8 49 bd 55 72 8b bd e8 f7 a5 bd
       -0.047847338 -0.04927888 -0.068089165 -0.08103925
000030 1a 0e 6a 3c b8 03 6e bd d0 31 2c be 8c 4b 6a bd
       0.014285589 -0.058109015 -0.16815877 -0.057200953
000040 09 d7 ae bd a4 13 d2 bd 4c e8 4b bd 3d 01 36 3d
       -0.085371085 -0.102576524 -0.049782082 0.044434775
000050 3e 15 ab bd 59 eb 9d bd 41 15 b3 3b 57 94 95 bd
       -0.08353661 -0.07710905 0.00546518 -0.07303684
000060 3e 7e 73 bd 0f 14 0c 3d 82 ca 36 bd 7b e3 34 3d
       -0.059446566 0.034198817 -0.04462672 0.044162255
000070 a4 98 42 bd 01 4c 33 bc 6b 2a 3d bd 4e af a3 bd
       -0.04750885 -0.010943414 -0.04618303 -0.07992421
000080 36 75 ac bc 2f d9 c9 bd e3 0a 8d bd 6d bd 65 bd
       -0.021051984 -0.098558776 -0.06886842 -0.056088854
000090 3c 8a 15 be 08 59 bd bd fc 54 e2 bd de c8 9f ba
       -0.14603513 -0.09245497 -0.11051366 -0.00121906
0000a0 3d 48 c0 bd e1 80 a2 bd cb 06 ba 3c c0 c3 dd bc
       -0.09388778 -0.07934738 0.022708317 -0.02707088
0000b0 db a3 0e be bf 81 d4 3c c0 75 83 bd 16 b1 fe 3a
       -0.13929693 0.025940774 -0.064189434 0.0019431438
0000c0 6f 15 94 bc 53 ed f0 3b e7 0d 8c bd eb b9 03 bd
       -0.018076627 0.00735251 -0.06838589 -0.032159727
0000d0 5d 8e a2 bd 59 33 4e bd 84 bd a3 bc fb d6 14 be
       -0.0793731 -0.050341938 -0.019987829 -0.14535134
0000e0 a0 db 5d bd b2 66 47 bd 4c d2 8b 3c e2 ee 78 bc
       -0.05416453 -0.048681922 0.01706805 -0.015193673
0000f0 7e 5a 83 bd f6 33 07 bd 9b ee f7 bb 82 07 95 bd
       -0.064137444 -0.03300854 -0.007566286 -0.072768226

fc.weight f4 [10, 3136]
000000 bd 02 68 bd f1 16 17 bd 57 f7 ca bc 09 e3 01 3d
       -0.056643236 -0.036887113 -0.024776144 0.03171066
000010 aa 73 aa 3c a5 24 e3 bc 74 dd 80 bd 51 89 06 3e
       0.020807106 -0.027727434 -0.06292239 0.1313832
000020 e3 37 8a bc 7e 1c e8 bd 99 5d b9 bc 66 a6 68 bd
       -0.016872352 -0.113335595 -0.022627639 -0.056799315
000030 24 38 1f 3d 5f 66 ca bd fc 9a 34 3d 04 25 b3 3d
       0.0388719 -0.09882807 0.044093117 0.087472945
000040 0d 62 ff bd be ce 1e be d4 30 64 3d 4e 92 1b 3e
       -0.124698736 -0.15508553 0.05571063 0.1519253
000050 0b 24 45 3d 26 80 1e 3e 65 0a 7c bb 90 10 1f 3d
       0.048130076 0.15478572 -0.0038458344 0.038834155
000060 04 44 05 bd 54 f0 c5 3b 7b 0c 41 3e 0b cd a8 bd
       -0.032535568 0.0060406122 0.18852417 -0.08242234
000070 84 93 64 3d 89 73 98 3b 49 17 07 bd 18 3f 2a be
       0.055804744 0.0046524447 -0.03298119 -0.16625631
000080 d5 0b 26 3d a5 4a a3 3d b6 68 9d 3c 0b cc 7f bc
       0.040538628 0.07973222 0.01921497 -0.0156126125
000090 52 65 db bb fc 20 19 3e 28 52 a1 be 47 4e 1d be
       -0.006695428 0.14953989 -0.31507993 -0.15361892
0000a0 8b be 6f be 2a 72 97 3b 6b 10 50 3b e1 ec e2 bb
       -0.2341253 0.0046217637 0.0031748067 -0.006925211
0000b0 1d 83 27 3e 8f 5b e6 be be 35 70 be d0 6c 68 bd
       0.1635861 -0.4499173 -0.23458001 -0.056744397
0000c0 7c ca da bc 12 a8 c5 b9 c2 1c 39 bd c1 a7 7c 3c
       -0.02670788 -0.0003769999 -0.04519344 0.015420855
0000d0 99 78 3c bd 17 cd 9b bd f5 31 71 bd 9d ae d9 3c
       -0.04601345 -0.07607477 -0.058885533 0.02657252
0000e0 f1 4c 20 3d d3 45 0a bd 32 c1 05 bd fa 7d 50 3d
       0.039135877 -0.033757996 -0.03265495 0.05090139
0000f0 d6 40 c9 bd 92 f7 e7 bd 7a de c5 3b 7e 23 7f 3c
       -0.098268196 -0.11326517 0.006038484 0.015572427
000100 7c 65 1c be 32 3d ec 3d 6c 9a cb bc 11 56 0e be
       -0.15273088 0.115351096 -0.024853908 -0.13900019
000110 33 e9 fe bd 28 20 93 3d 40 c7 ac bd af 00 10 3e
       -0.12446823 0.07183868 -0.084364414 0.14062761
000120 3e 4e 9f 3d 28 8f a7 3d c0 74 2c 3e 04 b0 af bc
       0.077785954 0.08181602 0.16841412 -0.021446235
000130 b1 6c e2 3c 82 36 82 3d 17 58 e7 3c a6 a9 3c 3d
       0.027639719 0.06358053 0.028240247 0.046060227
000140 9c c2 55 3d ff 6a 11 3e 6e 04 e5 3c 4f cb 5d 3d
       0.052187547 0.14200972 0.027956214 0.05414897
000150 ee c5 b7 bd 40 82 46 be cc 2f 10 be f5 aa b0 ba
       -0.08973299 -0.19385624 -0.14080733 -0.0013478684
000160 ea b5 c0 3d af 92 31 3c 6e 36 f8 bc 84 b3 a0 ba
       0.09409697 0.010838195 -0.030299392 -0.0012260531
000170 48 26 4c bd a2 2f 3a bd ed 63 14 be 41 13 04 bc
       -0.049841195 -0.045455582 -0.14491244 -0.008061231
000180 68 68 82 bd e0 bb 9e bc 34 20 0e bd 05 d2 9e 3b
       -0.0636757 -0.019376695 -0.03469868 0.0048468136
000190 b5 24 87 3c 40 1b 1a bd 7b ff c1 bd 6d b7 8c bc
       0.016496995 -0.037623644 -0.09472557 -0.017177308
0001a0 b0 48 53 bd 14 cf 1b bc 90 c9 98 bd 2b f0 28 be
       -0.051582992 -0.0095098205 -0.0746032 -0.16497867
0001b0 ee 1b 33 3e 72 89 bd bd bf 49 50 bd 2b 77 e5 3d
       0.17491123 -0.09254731 -0.05085158 0.1120437
0001c0 60 fe 20 bd 84 29 a4 bd ae 2d 4e 3d c1 6e 5c bc
       -0.03930509 -0.08015731 0.050336532 -0.01345414
0001d0 d4 df 18 bd 85 98 72 3d a6 90 d2 3d 3c e5 37 3d
       -0.037322834 0.059227485 0.10281496 0.04489635
0001e0 c3 4a 84 bd f8 f4 92 3d da 80 54 bd fd 71 d2 bd
       -0.06459572 0.0717563 -0.051880695 -0.10275648
0001f0 87 f3 0c 3e 7f ae 9b 3d 90 68 b6 3c ac c5 21 3d
       0.13764773 0.07601642 0.022266656 0.039495155
000200 b6 64 69 bd a1 ed 15 be 75 8a 58 3c 36 22 3a 3d
       -0.05698081 -0.1464143 0.0132166045 0.045442782
000210 31 d5 d1 3d 4a 75 b3 3b 69 2c 82 bc 4f 43 ee 3c
       0.10245741 0.0054766284 -0.015890317 0.02908483
000220 c7 e4 9d bd 22 7b 87 bb 22 f7 59 3c c2 7c 17 3b
       -0.077096514 -0.0041345516 0.01330355 0.0023115133
000230 fc c3 3b bd d3 0e 80 3d 7c 21 b8 bd a2 35 a6 bd
       -0.045841202 0.062528275 -0.08990762 -0.081156984
000240 d4 de 13 bc 6f 95 60 bd 5d 38 26 3c 02 b3 27 bd
       -0.009025294 -0.05483001 0.010145274 -0.0409422
000250 a6 97 01 bd 7a 0c 7d 3d 76 11 22 3d 4e d2 6e bc
       -0.031638764 0.061779477 0.039567433 -0.014576508
000260 27 f7 88 3c 58 b9 36 bc f6 48 4b 3c 43 ed 18 be
       0.016719414 -0.011152588 0.012407532 -0.14934258
000270 72 fc 72 3d e9 3e 06 3c bf dc ec 3d 2c 4f 0e 3e
       0.05932278 0.00819371 0.115655415 0.13897389
000280 40 bb 1e 3e f1 f0 b8 3c dc 01 90 3d 14 4e 3c bd
       0.15501118 0.022575827 0.07031605 -0.0459729
000290 24 02 0c bd 7a 5b 22 bc f7 00 6c 3d ee 1a e8 3d
       -0.03418173 -0.009909505 0.057618108 0.113332614
0002a0 0e 66 c6 3c a4 a9 a9 bd 93 d7 a8 3c e3 0d fe 3c
       0.024218585 -0.082843095 0.020610606 0.031012481
0002b0 6b 0e 68 be 5e 3d 2c 3d 12 ef 25 3e 2d b2 fc 3c
       -0.2266175 0.04205071 0.1620448 0.03084668
0002c0 be 26 87 39 67 85 4f bb d5 2b 84 bc 96 ae 24 be
       0.00025778072 -0.0031665207 -0.016134182 -0.16082224
0002d0 c6 c1 af bd 2f 3d 8e bd 33 79 fd bc 94 b7 9d 3c
       -0.08581881 -0.069452636 -0.030941581 0.019252576
0002e0 2c 54 37 3d f9 07 f9 bd e6 a9 68 be d3 24 55 be
       0.044758007 -0.12159724 -0.22721061 -0.20814829
0002f0 c5 09 87 bd cc e7 7a 3b 2d ed b2 3b 1d 38 75 3d
       -0.0659366 0.0038285134 0.0054604025 0.059867967
000300 83 44 7d 3d d8 10 d1 bd 86 4c 7c 3d 97 7e d4 bd
       0.061832916 -0.10208291 0.061596416 -0.103757076
000310 2b 74 0d be f3 fd 07 be f0 3f 25 be 9d 02 19 3d
       -0.13813846 -0.13280468 -0.16137671 0.037356008
000320 23 35 f6 bc ec b1 d0 3d 58 f6 57 bd 0a 56 c3 bd
       -0.030054634 0.10190186 -0.052725166 -0.09537895
000330 28 f1 99 bd 99 66 23 be e0 e5 48 bd b4 61 81 bd
       -0.075167 -0.15957107 -0.04904735 -0.063174635
000340 6d cc 08 bd 65 33 c3 bd b6 95 66 3c e6 0b 06 bc
       -0.03339808 -0.09531287 0.01407378 -0.008181548
000350 38 f5 35 bd 01 55 55 bb 5a 9b 02 3e 93 db 6e 3d
       -0.044423312 -0.0032551887 0.12754574 0.05831487
000360 35 62 85 bd de 53 26 bd d8 8e a6 3d fa b9 81 3d
       -0.06512872 -0.040607326 0.08132714 0.063343
000370 4c 98 05 bd 9c 5b 05 3c 7c f9 c0 3d 40 5d af bd
       -0.032615945 0.008139517 0.09422585 -0.08562708
000380 19 1d 80 3d bc 87 a6 3d 7c b3 aa 3d 4d bf 0f bc
       0.0625555 0.08131358 0.08335015 -0.008773637
000390 2b ed f3 bc 82 4f 1a bd 5e 11 80 be 64 e3 90 3d
       -0.029776176 -0.03767348 -0.2501325 0.07074621
0003a0 b6 97 8b bc bc f4 14 3e 59 cd c0 3d 9a af d9 be
       -0.017040115 0.14546484 0.09414167 -0.42516786
0003b0 52 a3 cc be 10 15 68 be 24 7e 87 3c 6c fa f9 37
       -0.39968354 -0.22664285 0.01653964 2.9799725e-05
0003c0 b7 45 35 3e e7 a6 ab bd 4a 51 a3 be 68 a5 13 be
       0.17702375 -0.083814435 -0.31897956 -0.14418566
0003d0 d9 3d 04 be 7c bf 13 bd 36 7b 68 bd 00 42 da bc
       -0.12914218 -0.036071286 -0.056758128 -0.0266428
0003e0 9f 22 19 3d 67 b0 48 bd 07 4f 15 3d 9a 5b 7e 3c
       0.037386533 -0.048996355 0.03645232 0.015524769
0003f0 74 6b ac bd 21 44 63 bd e9 a4 4d bc 77 8c 5f bd
       -0.084189326 -0.055484895 -0.012551525 -0.054577317

fc.bias f4 [10]
000000 95 28 6f 3d d3 46 4e 3d a3 7b ed 3c a6 ed e3 bc
       0.05838831 0.050360512 0.028989619 -0.02782328
000010 89 8f 2f bd 65 f5 2f 3c cc 86 61 bb 8a e1 9a bc
       -0.042861495 0.010739659 -0.003441262 -0.018906374
000020 22 e9 03 bc 07 8a 1b bc
       -0.008051189 -0.0094933575
